prebuilts/samsung/a73xqxx/system/saiv/textrecognition/stride/mSTR_CraftBPN_Encoder.tflite (tflite, 166128 bytes, 17 tensors)

quantize_1/conv_d2s_2/depthwise_kernel i1 [1, 3, 3, 64]
0	0x1c	28
1	0x49	73
2	0x4a	74
3	0x81	-127
4	0x07	7
5	0x42	66
6	0xa8	-88
7	0x81	-127
8	0x81	-127
9	0x43	67
10	0x9d	-99
11	0x67	103
12	0x04	4
13	0x25	37
14	0xf2	-14
15	0x26	38
16	0x72	114
17	0xf9	-7
18	0x4b	75
19	0x5d	93
20	0x0c	12
21	0x42	66
22	0x81	-127
23	0x0e	14
24	0xf6	-10
25	0x5c	92
26	0xd6	-42
27	0xbd	-67
28	0x1d	29
29	0x24	36
30	0xdf	-33
31	0x59	89
32	0xfd	-3
33	0xfc	-4
34	0x8f	-113
35	0x20	32
36	0x0c	12
37	0x12	18
38	0x03	3
39	0x81	-127
40	0x81	-127
41	0x35	53
42	0x08	8
43	0xee	-18
44	0x81	-127
45	0x81	-127
46	0x4f	79
47	0xf5	-11
48	0xda	-38
49	0x18	24
50	0x78	120
51	0xdb	-37
52	0xef	-17
53	0xe6	-26
54	0xed	-19
55	0xd1	-47
56	0x7f	127
57	0x62	98
58	0xb4	-76
59	0x07	7
60	0xe5	-27
61	0x7f	127
62	0xbb	-69
63	0x81	-127
64	0x16	22
65	0x6e	110
66	0x25	37
67	0x34	52
68	0x5a	90
69	0x7f	127
70	0xdf	-33
71	0x25	37
72	0xef	-17
73	0x2e	46
74	0xf3	-13
75	0x81	-127
76	0x03	3
77	0x7f	127
78	0xff	-1
79	0x36	54
80	0x44	68
81	0x15	21
82	0x7f	127
83	0x6b	107
84	0x7d	125
85	0x7f	127
86	0xe5	-27
87	0xf3	-13
88	0x5d	93
89	0x0e	14
90	0x7f	127
91	0xe2	-30
92	0x01	1
93	0x81	-127
94	0xfb	-5
95	0x09	9
96	0x81	-127
97	0x0b	11
98	0x76	118
99	0x99	-103
100	0x0e	14
101	0xd6	-42
102	0x81	-127
103	0x5a	90
104	0x2c	44
105	0x7f	127
106	0x9c	-100
107	0x11	17
108	0xff	-1
109	0xac	-84
110	0x29	41
111	0x04	4
112	0x1d	29
113	0x5f	95
114	0xd7	-41
115	0xae	-82
116	0xfa	-6
117	0x18	24
118	0x26	38
119	0x6d	109
120	0xff	-1
121	0xfa	-6
122	0x38	56
123	0x1e	30
124	0xcd	-51
125	0x32	50
126	0x07	7
127	0xf6	-10
128	0xc8	-56
129	0x61	97
130	0x22	34
131	0xd9	-39
132	0xfc	-4
133	0xf3	-13
134	0x81	-127
135	0xf1	-15
136	0xf8	-8
137	0xf8	-8
138	0x7f	127
139	0xf9	-7
140	0x06	6
141	0x0b	11
142	0xca	-54
143	0x0e	14
144	0x81	-127
145	0xf3	-13
146	0x37	55
147	0x5b	91
148	0x01	1
149	0xef	-17
150	0xff	-1
151	0x1b	27
152	0x05	5
153	0x81	-127
154	0xd4	-44
155	0xea	-22
156	0xe2	-30
157	0x18	24
158	0x00	0
159	0xf7	-9
160	0x02	2
161	0xf8	-8
162	0x78	120
163	0xed	-19
164	0x02	2
165	0x32	50
166	0x48	72
167	0xfd	-3
168	0x0f	15
169	0xdb	-37
170	0x12	18
171	0xfd	-3
172	0x32	50
173	0x52	82
174	0xf6	-10
175	0x6d	109
176	0x06	6
177	0x7c	124
178	0xb5	-75
179	0xf3	-13
180	0x02	2
181	0x52	82
182	0xe0	-32
183	0x33	51
184	0xc6	-58
185	0x22	34
186	0x66	102
187	0xfd	-3
188	0xfc	-4
189	0x35	53
190	0xf6	-10
191	0x09	9
192	0x7f	127
193	0xd6	-42
194	0x4c	76
195	0xf8	-8
196	0x7f	127
197	0x13	19
198	0x10	16
199	0xdd	-35
200	0x4d	77
201	0x7f	127
202	0x84	-124
203	0x5b	91
204	0x16	22
205	0x29	41
206	0xee	-18
207	0x08	8
208	0x5a	90
209	0x60	96
210	0x28	40
211	0x05	5
212	0x50	80
213	0xea	-22
214	0x7e	126
215	0x9e	-98
216	0x81	-127
217	0x65	101
218	0x7e	126
219	0x7f	127
220	0x20	32
221	0x4f	79
222	0x7f	127
223	0x7f	127
224	0x1c	28
225	0x7f	127
226	0xdf	-33
227	0x7f	127
228	0x81	-127
229	0x97	-105
230	0xe8	-24
231	0xf1	-15
232	0x6c	108
233	0xdf	-33
234	0x78	120
235	0x1c	28
236	0x9b	-101
237	0x0a	10
238	0x47	71
239	0xb6	-74
240	0xee	-18
241	0x81	-127
242	0x38	56
243	0x7f	127
244	0x81	-127
245	0xb7	-73
246	0xa0	-96
247	0x81	-127
248	0x72	114
249	0x7f	127
250	0xc2	-62
251	0x7f	127
252	0x13	19
253	0x34	52
254	0xff	-1
255	0x8f	-113

quantize_1/fire2Stud_expand_1x1/kernel i1 [44, 1, 1, 12]
0	0xdd	-35
1	0x35	53
2	0x44	68
3	0x01	1
4	0xfc	-4
5	0x81	-127
6	0x30	48
7	0x1a	26
8	0xa8	-88
9	0xdf	-33
10	0xae	-82
11	0x41	65
12	0xdd	-35
13	0x40	64
14	0xed	-19
15	0x73	115
16	0x3a	58
17	0x0a	10
18	0x00	0
19	0x15	21
20	0x01	1
21	0x05	5
22	0x81	-127
23	0xbc	-68
24	0xfb	-5
25	0xfd	-3
26	0xb2	-78
27	0x51	81
28	0x81	-127
29	0xed	-19
30	0x0c	12
31	0xea	-22
32	0xb5	-75
33	0x65	101
34	0x3e	62
35	0x4f	79
36	0x03	3
37	0x9a	-102
38	0xec	-20
39	0x11	17
40	0x1f	31
41	0x7f	127
42	0xcd	-51
43	0x26	38
44	0xbd	-67
45	0xec	-20
46	0xf0	-16
47	0x43	67
48	0xe8	-24
49	0xe7	-25
50	0xd7	-41
51	0xa0	-96
52	0xf7	-9
53	0xff	-1
54	0x14	20
55	0x90	-112
56	0x93	-109
57	0x0c	12
58	0x81	-127
59	0xe2	-30
60	0x27	39
61	0xde	-34
62	0x24	36
63	0xce	-50
64	0x1d	29
65	0x6d	109
66	0xcd	-51
67	0x7f	127
68	0xa3	-93
69	0x91	-111
70	0xf0	-16
71	0x9e	-98
72	0x18	24
73	0x68	104
74	0x9c	-100
75	0x08	8
76	0x41	65
77	0xf7	-9
78	0xf5	-11
79	0x0d	13
80	0x81	-127
81	0x1d	29
82	0x4d	77
83	0xf5	-11
84	0x1f	31
85	0x81	-127
86	0xbc	-68
87	0xdc	-36
88	0x0a	10
89	0xf2	-14
90	0x33	51
91	0x14	20
92	0xf0	-16
93	0x06	6
94	0xb2	-78
95	0x68	104
96	0xe0	-32
97	0xa9	-87
98	0x1a	26
99	0x2a	42
100	0x53	83
101	0x8b	-117
102	0xfc	-4
103	0x22	34
104	0xd7	-41
105	0x8a	-118
106	0x2d	45
107	0x81	-127
108	0xf9	-7
109	0xe8	-24
110	0x13	19
111	0xe2	-30
112	0x46	70
113	0xf5	-11
114	0x56	86
115	0xa3	-93
116	0x19	25
117	0xd6	-42
118	0x1c	28
119	0x7f	127
120	0x11	17
121	0x11	17
122	0xad	-83
123	0xf6	-10
124	0x12	18
125	0x26	38
126	0x11	17
127	0x81	-127
128	0x36	54
129	0xfb	-5
130	0x0e	14
131	0x18	24
132	0xab	-85
133	0x7f	127
134	0x4f	79
135	0x33	51
136	0x36	54
137	0xb1	-79
138	0x19	25
139	0x20	32
140	0xb2	-78
141	0x30	48
142	0xd7	-41
143	0x12	18
144	0xfe	-2
145	0x43	67
146	0xd9	-39
147	0xae	-82
148	0xe2	-30
149	0x1d	29
150	0xf9	-7
151	0x1d	29
152	0x14	20
153	0xe5	-27
154	0x81	-127
155	0xef	-17
156	0x3e	62
157	0x3f	63
158	0x34	52
159	0x7f	127
160	0xd6	-42
161	0xfe	-2
162	0x9d	-99
163	0x29	41
164	0x46	70
165	0xf2	-14
166	0xba	-70
167	0x0b	11
168	0x30	48
169	0x19	25
170	0x00	0
171	0xbc	-68
172	0xb7	-73
173	0x7f	127
174	0x3d	61
175	0x0a	10
176	0x46	70
177	0xf7	-9
178	0x21	33
179	0xe4	-28
180	0x24	36
181	0x10	16
182	0xd6	-42
183	0x15	21
184	0x9a	-102
185	0x7f	127
186	0x5b	91
187	0x12	18
188	0x29	41
189	0x37	55
190	0x8e	-114
191	0x1d	29
192	0x19	25
193	0xff	-1
194	0x9d	-99
195	0x41	65
196	0x64	100
197	0x0c	12
198	0x12	18
199	0x81	-127
200	0x4f	79
201	0x19	25
202	0x01	1
203	0x11	17
204	0x23	35
205	0x06	6
206	0xda	-38
207	0xd2	-46
208	0x4d	77
209	0x44	68
210	0x07	7
211	0x72	114
212	0x1e	30
213	0x4b	75
214	0x72	114
215	0x81	-127
216	0x0f	15
217	0x58	88
218	0xee	-18
219	0x15	21
220	0x41	65
221	0x39	57
222	0xc1	-63
223	0x81	-127
224	0xbc	-68
225	0xeb	-21
226	0xfa	-6
227	0x0f	15
228	0xa2	-94
229	0xe8	-24
230	0xde	-34
231	0x64	100
232	0x3d	61
233	0x81	-127
234	0xfb	-5
235	0x38	56
236	0x31	49
237	0xa4	-92
238	0x30	48
239	0x44	68
240	0x14	20
241	0x0c	12
242	0x81	-127
243	0xf5	-11
244	0x59	89
245	0xdc	-36
246	0x24	36
247	0xc3	-61
248	0x3f	63
249	0x23	35
250	0xb3	-77
251	0x08	8
252	0xcc	-52
253	0xf2	-14
254	0xa0	-96
255	0x6e	110

quantize_1/fire2Stud_expand_3x3/kernel i1 [40, 3, 3, 12]
0	0x00	0
1	0x5a	90
2	0xc6	-58
3	0x21	33
4	0x00	0
5	0x17	23
6	0x81	-127
7	0xdb	-37
8	0x07	7
9	0x13	19
10	0xc5	-59
11	0xb3	-77
12	0xd4	-44
13	0xd3	-45
14	0x83	-125
15	0xe8	-24
16	0xfa	-6
17	0xe7	-25
18	0x09	9
19	0xf5	-11
20	0x21	33
21	0x38	56
22	0x8c	-116
23	0xe8	-24
24	0x2c	44
25	0xbe	-66
26	0xe7	-25
27	0xe5	-27
28	0x31	49
29	0xf0	-16
30	0x11	17
31	0x1b	27
32	0x19	25
33	0x14	20
34	0xc9	-55
35	0x2c	44
36	0xeb	-21
37	0x63	99
38	0x1b	27
39	0x03	3
40	0xeb	-21
41	0x35	53
42	0xec	-20
43	0xaf	-81
44	0xc7	-57
45	0x1f	31
46	0x10	16
47	0x9a	-102
48	0x3e	62
49	0xee	-18
50	0x63	99
51	0x7d	125
52	0x3a	58
53	0xe0	-32
54	0x01	1
55	0x7c	124
56	0x02	2
57	0xca	-54
58	0x16	22
59	0x17	23
60	0x2b	43
61	0xb5	-75
62	0x43	67
63	0xc8	-56
64	0xf7	-9
65	0x13	19
66	0xde	-34
67	0xf1	-15
68	0xdb	-37
69	0xe5	-27
70	0x3e	62
71	0x5f	95
72	0x36	54
73	0x33	51
74	0xff	-1
75	0x16	22
76	0x36	54
77	0xe5	-27
78	0x2f	47
79	0xe6	-26
80	0x20	32
81	0x35	53
82	0x0a	10
83	0x1f	31
84	0xec	-20
85	0xf2	-14
86	0xdf	-33
87	0xf1	-15
88	0x1b	27
89	0x9c	-100
90	0x2e	46
91	0x06	6
92	0xfc	-4
93	0xeb	-21
94	0xe4	-28
95	0x12	18
96	0xf7	-9
97	0x42	66
98	0xf9	-7
99	0x15	21
100	0xc8	-56
101	0x59	89
102	0x45	69
103	0xc8	-56
104	0x30	48
105	0x36	54
106	0xff	-1
107	0xfc	-4
108	0x05	5
109	0x1a	26
110	0x37	55
111	0x20	32
112	0xf6	-10
113	0x2b	43
114	0x01	1
115	0x2d	45
116	0x25	37
117	0x12	18
118	0x32	50
119	0x16	22
120	0x0c	12
121	0x22	34
122	0x0f	15
123	0xe1	-31
124	0x10	16
125	0x1a	26
126	0xf4	-12
127	0xfb	-5
128	0xe7	-25
129	0x3b	59
130	0xdf	-33
131	0xe0	-32
132	0x28	40
133	0x0e	14
134	0xf9	-7
135	0x00	0
136	0xe8	-24
137	0x3c	60
138	0x19	25
139	0xac	-84
140	0xe9	-23
141	0x21	33
142	0xe4	-28
143	0xf5	-11
144	0xfc	-4
145	0x22	34
146	0x11	17
147	0x01	1
148	0xfd	-3
149	0xcb	-53
150	0x05	5
151	0x09	9
152	0xe6	-26
153	0xee	-18
154	0xcb	-53
155	0xc1	-63
156	0x82	-126
157	0xff	-1
158	0x8e	-114
159	0x9e	-98
160	0xd9	-39
161	0xf3	-13
162	0xf7	-9
163	0xa7	-89
164	0x8c	-116
165	0x00	0
166	0x81	-127
167	0xbb	-69
168	0xfe	-2
169	0x2f	47
170	0x22	34
171	0x26	38
172	0xf9	-7
173	0xfb	-5
174	0xf4	-12
175	0x16	22
176	0xfc	-4
177	0x12	18
178	0x02	2
179	0x1b	27
180	0xe7	-25
181	0x2e	46
182	0xf7	-9
183	0x01	1
184	0xe5	-27
185	0x21	33
186	0x2a	42
187	0xee	-18
188	0xdd	-35
189	0x22	34
190	0xe8	-24
191	0x03	3
192	0x18	24
193	0xe9	-23
194	0xf7	-9
195	0xf4	-12
196	0x0e	14
197	0xcd	-51
198	0x1f	31
199	0x14	20
200	0xdf	-33
201	0xf0	-16
202	0xf4	-12
203	0x15	21
204	0x1c	28
205	0x38	56
206	0xf9	-7
207	0x2b	43
208	0x0b	11
209	0x31	49
210	0x41	65
211	0x1e	30
212	0x2f	47
213	0xe7	-25
214	0x27	39
215	0x22	34
216	0xde	-34
217	0xff	-1
218	0x1a	26
219	0xf5	-11
220	0xdb	-37
221	0x05	5
222	0xf1	-15
223	0xf4	-12
224	0xdb	-37
225	0x19	25
226	0xf7	-9
227	0xdf	-33
228	0xd7	-41
229	0x00	0
230	0x30	48
231	0xf3	-13
232	0xc2	-62
233	0x0a	10
234	0x3d	61
235	0xfd	-3
236	0xef	-17
237	0x20	32
238	0x1b	27
239	0x20	32
240	0x0c	12
241	0xc6	-58
242	0x0a	10
243	0xe2	-30
244	0xd8	-40
245	0xfe	-2
246	0xf2	-14
247	0xf3	-13
248	0xf6	-10
249	0x06	6
250	0xf1	-15
251	0x1a	26
252	0x40	64
253	0xc9	-55
254	0x32	50
255	0xbc	-68

quantize_1/fire2Stud_squeeze/kernel i1 [12, 1, 1, 64]
0	0xd4	-44
1	0x68	104
2	0xc9	-55
3	0xf0	-16
4	0xf8	-8
5	0x3b	59
6	0x0a	10
7	0xbd	-67
8	0xe1	-31
9	0x12	18
10	0xd0	-48
11	0xf1	-15
12	0xa5	-91
13	0x0a	10
14	0x0d	13
15	0xc8	-56
16	0xf4	-12
17	0xfb	-5
18	0xcb	-53
19	0x1b	27
20	0xe0	-32
21	0x5b	91
22	0xed	-19
23	0xeb	-21
24	0xd0	-48
25	0x56	86
26	0x4f	79
27	0xcf	-49
28	0x03	3
29	0xf5	-11
30	0x06	6
31	0xff	-1
32	0x4b	75
33	0xb3	-77
34	0x58	88
35	0x03	3
36	0xc1	-63
37	0x7f	127
38	0x6f	111
39	0x53	83
40	0xaa	-86
41	0x27	39
42	0x38	56
43	0x37	55
44	0xe9	-23
45	0x06	6
46	0xc8	-56
47	0x4e	78
48	0x2c	44
49	0x56	86
50	0xc9	-55
51	0x5d	93
52	0x42	66
53	0xc5	-59
54	0x1e	30
55	0x32	50
56	0x99	-103
57	0x0d	13
58	0xaa	-86
59	0x15	21
60	0x10	16
61	0x9b	-101
62	0xc5	-59
63	0xf6	-10
64	0x11	17
65	0xc9	-55
66	0x22	34
67	0x31	49
68	0x28	40
69	0xf0	-16
70	0xd4	-44
71	0x3b	59
72	0x28	40
73	0xee	-18
74	0x3d	61
75	0x04	4
76	0x0c	12
77	0x21	33
78	0xed	-19
79	0x25	37
80	0x5b	91
81	0xf3	-13
82	0x0f	15
83	0xdb	-37
84	0xf8	-8
85	0xeb	-21
86	0x36	54
87	0xe2	-30
88	0xdb	-37
89	0x2e	46
90	0x34	52
91	0xb7	-73
92	0x13	19
93	0xf7	-9
94	0x64	100
95	0x46	70
96	0xe1	-31
97	0x2f	47
98	0xfb	-5
99	0x38	56
100	0x10	16
101	0x08	8
102	0xfc	-4
103	0x24	36
104	0x07	7
105	0x1c	28
106	0xbc	-68
107	0x21	33
108	0xf7	-9
109	0x41	65
110	0x4b	75
111	0xdf	-33
112	0xde	-34
113	0xd3	-45
114	0x48	72
115	0xbb	-69
116	0x12	18
117	0x25	37
118	0x0b	11
119	0xf1	-15
120	0x7f	127
121	0xc0	-64
122	0x26	38
123	0x31	49
124	0x1f	31
125	0x3e	62
126	0xdf	-33
127	0x49	73
128	0xf6	-10
129	0xfe	-2
130	0x1c	28
131	0x4c	76
132	0xee	-18
133	0xcf	-49
134	0xee	-18
135	0x47	71
136	0xf3	-13
137	0xf3	-13
138	0x19	25
139	0x60	96
140	0xe0	-32
141	0x04	4
142	0xe1	-31
143	0xcb	-53
144	0x3c	60
145	0x75	117
146	0xe9	-23
147	0xd9	-39
148	0x26	38
149	0xe7	-25
150	0xec	-20
151	0x68	104
152	0x2e	46
153	0x5d	93
154	0x09	9
155	0x0b	11
156	0x0e	14
157	0x59	89
158	0x1b	27
159	0x3f	63
160	0x03	3
161	0x40	64
162	0x07	7
163	0x1b	27
164	0x0a	10
165	0xf8	-8
166	0x2b	43
167	0x4b	75
168	0xf9	-7
169	0xe3	-29
170	0x3d	61
171	0x0a	10
172	0xad	-83
173	0x20	32
174	0x1e	30
175	0x1b	27
176	0xfd	-3
177	0x0a	10
178	0xf6	-10
179	0x0f	15
180	0x15	21
181	0x19	25
182	0x7f	127
183	0x49	73
184	0x0a	10
185	0xfd	-3
186	0xf9	-7
187	0xd9	-39
188	0xe0	-32
189	0xe1	-31
190	0xf2	-14
191	0x4f	79
192	0x02	2
193	0x05	5
194	0xef	-17
195	0xc9	-55
196	0x4b	75
197	0xdd	-35
198	0x16	22
199	0x35	53
200	0x53	83
201	0xe7	-25
202	0xf6	-10
203	0x01	1
204	0x1e	30
205	0x58	88
206	0xf7	-9
207	0x20	32
208	0x09	9
209	0xd5	-43
210	0x4d	77
211	0x28	40
212	0xe9	-23
213	0x64	100
214	0x22	34
215	0xd2	-46
216	0xe7	-25
217	0x06	6
218	0x28	40
219	0xf8	-8
220	0xf2	-14
221	0x0c	12
222	0x0f	15
223	0x39	57
224	0x15	21
225	0xf7	-9
226	0x06	6
227	0x09	9
228	0x37	55
229	0x0a	10
230	0xf1	-15
231	0x11	17
232	0x55	85
233	0x49	73
234	0xe0	-32
235	0x2c	44
236	0x1f	31
237	0xd9	-39
238	0x1d	29
239	0x15	21
240	0x2a	42
241	0xee	-18
242	0x0d	13
243	0xf6	-10
244	0xe6	-26
245	0xd2	-46
246	0xd3	-45
247	0xe9	-23
248	0xde	-34
249	0x7f	127
250	0xe5	-27
251	0xc2	-62
252	0x2c	44
253	0x13	19
254	0x4f	79
255	0x10	16

quantize_1/fire3_2Stud_expand_1x1/kernel i1 [44, 1, 1, 12]
0	0xba	-70
1	0x7f	127
2	0x19	25
3	0xcc	-52
4	0x7e	126
5	0x57	87
6	0x76	118
7	0x36	54
8	0xf4	-12
9	0x13	19
10	0xa7	-89
11	0x07	7
12	0xf9	-7
13	0xb2	-78
14	0x7f	127
15	0xc0	-64
16	0x8e	-114
17	0x2c	44
18	0x1c	28
19	0xd1	-47
20	0x0e	14
21	0xb7	-73
22	0xd4	-44
23	0xda	-38
24	0x81	-127
25	0x28	40
26	0x9a	-102
27	0x0f	15
28	0x2d	45
29	0x17	23
30	0x10	16
31	0x47	71
32	0xf5	-11
33	0x24	36
34	0xc0	-64
35	0xc9	-55
36	0xf8	-8
37	0xb8	-72
38	0x03	3
39	0xaa	-86
40	0x1c	28
41	0xda	-38
42	0x21	33
43	0xba	-70
44	0x7f	127
45	0x5f	95
46	0xbf	-65
47	0x41	65
48	0x8d	-115
49	0x02	2
50	0x77	119
51	0x4d	77
52	0x22	34
53	0x08	8
54	0x81	-127
55	0xa9	-87
56	0x38	56
57	0x76	118
58	0xcc	-52
59	0xf9	-7
60	0x3c	60
61	0x02	2
62	0x06	6
63	0xac	-84
64	0xe4	-28
65	0x2b	43
66	0xf4	-12
67	0x27	39
68	0x7f	127
69	0xd6	-42
70	0xf4	-12
71	0xf8	-8
72	0x47	71
73	0xfe	-2
74	0x81	-127
75	0x1a	26
76	0x07	7
77	0xaa	-86
78	0x16	22
79	0x29	41
80	0xfe	-2
81	0x02	2
82	0xda	-38
83	0xc6	-58
84	0xdb	-37
85	0x4e	78
86	0x04	4
87	0x1f	31
88	0x81	-127
89	0x51	81
90	0x13	19
91	0xea	-22
92	0x96	-106
93	0x1b	27
94	0x1d	29
95	0xdf	-33
96	0x31	49
97	0x29	41
98	0xd1	-47
99	0xf9	-7
100	0x4d	77
101	0x7f	127
102	0x1f	31
103	0xdb	-37
104	0x6d	109
105	0x84	-124
106	0x28	40
107	0x06	6
108	0x24	36
109	0xde	-34
110	0xe8	-24
111	0x0f	15
112	0xfc	-4
113	0x41	65
114	0xcd	-51
115	0x08	8
116	0x81	-127
117	0x1c	28
118	0x0f	15
119	0xed	-19
120	0x14	20
121	0x02	2
122	0xec	-20
123	0x1a	26
124	0x02	2
125	0xbd	-67
126	0xfb	-5
127	0x81	-127
128	0xc4	-60
129	0xc2	-62
130	0xf4	-12
131	0x25	37
132	0xf1	-15
133	0x0c	12
134	0x2b	43
135	0x81	-127
136	0x1e	30
137	0x16	22
138	0x06	6
139	0xf2	-14
140	0xb3	-77
141	0x24	36
142	0xaf	-81
143	0x3a	58
144	0x46	70
145	0xf7	-9
146	0xd6	-42
147	0xcd	-51
148	0xd7	-41
149	0xc0	-64
150	0x30	48
151	0xea	-22
152	0x81	-127
153	0xec	-20
154	0xdc	-36
155	0x60	96
156	0xee	-18
157	0xe5	-27
158	0xb0	-80
159	0x22	34
160	0xfd	-3
161	0xf4	-12
162	0xf6	-10
163	0x48	72
164	0x2a	42
165	0x7f	127
166	0xb7	-73
167	0xda	-38
168	0x3c	60
169	0x92	-110
170	0x01	1
171	0x04	4
172	0xa9	-87
173	0xe3	-29
174	0x81	-127
175	0x02	2
176	0x11	17
177	0xef	-17
178	0x28	40
179	0xef	-17
180	0x32	50
181	0xe7	-25
182	0xcc	-52
183	0x0e	14
184	0xe0	-32
185	0xde	-34
186	0x2b	43
187	0x7f	127
188	0x08	8
189	0xb5	-75
190	0xda	-38
191	0x05	5
192	0xd5	-43
193	0xd2	-46
194	0xe8	-24
195	0xd9	-39
196	0xe3	-29
197	0x2c	44
198	0xc7	-57
199	0x7f	127
200	0x0c	12
201	0x13	19
202	0xde	-34
203	0xd3	-45
204	0xf8	-8
205	0xe0	-32
206	0xc0	-64
207	0x60	96
208	0x95	-107
209	0xee	-18
210	0xc0	-64
211	0x1b	27
212	0x06	6
213	0x81	-127
214	0xd5	-43
215	0xcd	-51
216	0x15	21
217	0xa3	-93
218	0x36	54
219	0xcd	-51
220	0x81	-127
221	0xd3	-45
222	0x3b	59
223	0x56	86
224	0x95	-107
225	0x3c	60
226	0x92	-110
227	0xfd	-3
228	0x21	33
229	0xf7	-9
230	0x7f	127
231	0x10	16
232	0xe7	-25
233	0xae	-82
234	0x28	40
235	0xa7	-89
236	0x91	-111
237	0xe2	-30
238	0x86	-122
239	0x35	53
240	0x9d	-99
241	0xc2	-62
242	0x81	-127
243	0xb5	-75
244	0xa7	-89
245	0x2e	46
246	0xd3	-45
247	0x1c	28
248	0xf5	-11
249	0x0b	11
250	0x1e	30
251	0x54	84
252	0x16	22
253	0xa2	-94
254	0xdf	-33
255	0xe5	-27

quantize_1/fire3_2Stud_expand_3x3/kernel i1 [44, 3, 3, 12]
0	0xd6	-42
1	0x05	5
2	0xda	-38
3	0xc1	-63
4	0xf3	-13
5	0xbc	-68
6	0xee	-18
7	0xe7	-25
8	0x03	3
9	0x08	8
10	0xca	-54
11	0x0b	11
12	0xcc	-52
13	0xb3	-77
14	0xb2	-78
15	0xda	-38
16	0x92	-110
17	0xd4	-44
18	0x2f	47
19	0xe9	-23
20	0x1c	28
21	0x2f	47
22	0x9f	-97
23	0xef	-17
24	0x0d	13
25	0x1c	28
26	0xe0	-32
27	0x2e	46
28	0x38	56
29	0xf0	-16
30	0x7f	127
31	0x4a	74
32	0x0a	10
33	0xfa	-6
34	0xfd	-3
35	0x20	32
36	0x0b	11
37	0xe2	-30
38	0xef	-17
39	0xb7	-73
40	0xf3	-13
41	0xbe	-66
42	0x10	16
43	0xe5	-27
44	0x0b	11
45	0x57	87
46	0xa1	-95
47	0xd7	-41
48	0x4a	74
49	0xdf	-33
50	0x18	24
51	0x01	1
52	0xe8	-24
53	0xd9	-39
54	0x34	52
55	0x28	40
56	0x46	70
57	0x3b	59
58	0xf5	-11
59	0xb5	-75
60	0x33	51
61	0x4e	78
62	0x49	73
63	0x2e	46
64	0x64	100
65	0x4a	74
66	0x42	66
67	0x2e	46
68	0x15	21
69	0xf9	-7
70	0x41	65
71	0x3a	58
72	0xfa	-6
73	0xf4	-12
74	0xf3	-13
75	0x20	32
76	0x0a	10
77	0xcd	-51
78	0x64	100
79	0xe7	-25
80	0xd6	-42
81	0x58	88
82	0xca	-54
83	0xa5	-91
84	0xef	-17
85	0x25	37
86	0x1c	28
87	0x24	36
88	0x0f	15
89	0x0e	14
90	0x0e	14
91	0x02	2
92	0xed	-19
93	0x23	35
94	0x05	5
95	0xdb	-37
96	0x00	0
97	0x17	23
98	0xe2	-30
99	0xf1	-15
100	0x03	3
101	0x1b	27
102	0x13	19
103	0xed	-19
104	0xf3	-13
105	0xd2	-46
106	0x01	1
107	0x1a	26
108	0x5a	90
109	0x21	33
110	0xf2	-14
111	0x02	2
112	0x16	22
113	0x03	3
114	0x00	0
115	0x1a	26
116	0x2c	44
117	0x26	38
118	0x22	34
119	0xe4	-28
120	0xac	-84
121	0xc7	-57
122	0xd8	-40
123	0xce	-50
124	0xe8	-24
125	0xa4	-92
126	0x48	72
127	0x0b	11
128	0xc4	-60
129	0xc9	-55
130	0xce	-50
131	0x42	66
132	0x9c	-100
133	0x04	4
134	0xfa	-6
135	0xdb	-37
136	0xf4	-12
137	0xbf	-65
138	0x0a	10
139	0x05	5
140	0xc8	-56
141	0xc6	-58
142	0x28	40
143	0x22	34
144	0x55	85
145	0xf6	-10
146	0xfe	-2
147	0x14	20
148	0xf3	-13
149	0x2d	45
150	0x00	0
151	0xdd	-35
152	0x10	16
153	0x49	73
154	0x02	2
155	0x81	-127
156	0x00	0
157	0x0a	10
158	0xf4	-12
159	0xe0	-32
160	0x05	5
161	0x24	36
162	0xd7	-41
163	0xce	-50
164	0x15	21
165	0x42	66
166	0x07	7
167	0xe8	-24
168	0xbd	-67
169	0x0a	10
170	0x32	50
171	0xd4	-44
172	0xf8	-8
173	0xcd	-51
174	0xe2	-30
175	0xfc	-4
176	0xe0	-32
177	0xd9	-39
178	0xf0	-16
179	0x23	35
180	0x2c	44
181	0xf4	-12
182	0x0a	10
183	0x0c	12
184	0xed	-19
185	0xf6	-10
186	0xf8	-8
187	0xfe	-2
188	0x07	7
189	0x10	16
190	0xd7	-41
191	0xf0	-16
192	0x14	20
193	0x02	2
194	0xcb	-53
195	0x1f	31
196	0xff	-1
197	0x17	23
198	0x21	33
199	0x2d	45
200	0x16	22
201	0x40	64
202	0x03	3
203	0xa2	-94
204	0x20	32
205	0xfa	-6
206	0x21	33
207	0xdb	-37
208	0xf9	-7
209	0x19	25
210	0x1f	31
211	0xdc	-36
212	0x16	22
213	0xeb	-21
214	0x0a	10
215	0xf3	-13
216	0xbd	-67
217	0xda	-38
218	0x18	24
219	0xd7	-41
220	0xdc	-36
221	0x0e	14
222	0xe1	-31
223	0x0b	11
224	0xec	-20
225	0xfa	-6
226	0x28	40
227	0x0b	11
228	0xfd	-3
229	0xd5	-43
230	0x44	68
231	0xe4	-28
232	0xdd	-35
233	0xfb	-5
234	0xe9	-23
235	0x43	67
236	0xce	-50
237	0x17	23
238	0xe5	-27
239	0xc2	-62
240	0x08	8
241	0x13	19
242	0xf7	-9
243	0xb9	-71
244	0x12	18
245	0x7f	127
246	0xd7	-41
247	0x10	16
248	0x1c	28
249	0x49	73
250	0x18	24
251	0xcf	-49
252	0xc7	-57
253	0xee	-18
254	0x25	37
255	0x22	34

quantize_1/fire3_2Stud_squeeze/kernel i1 [12, 1, 1, 84]
0	0xe1	-31
1	0x02	2
2	0xe9	-23
3	0x37	55
4	0xc4	-60
5	0xe6	-26
6	0xc9	-55
7	0x4a	74
8	0xc9	-55
9	0x31	49
10	0xe6	-26
11	0xfd	-3
12	0xd5	-43
13	0x10	16
14	0x20	32
15	0x07	7
16	0xfe	-2
17	0x0f	15
18	0xb4	-76
19	0x25	37
20	0x0c	12
21	0xd9	-39
22	0x0e	14
23	0x15	21
24	0x47	71
25	0xc2	-62
26	0x0b	11
27	0x28	40
28	0x81	-127
29	0x08	8
30	0xc9	-55
31	0xd2	-46
32	0xd7	-41
33	0xdd	-35
34	0x2a	42
35	0x09	9
36	0x14	20
37	0xca	-54
38	0xd6	-42
39	0x28	40
40	0x17	23
41	0x00	0
42	0xf3	-13
43	0x91	-111
44	0xec	-20
45	0xf4	-12
46	0x03	3
47	0xee	-18
48	0x04	4
49	0xf8	-8
50	0xd6	-42
51	0x04	4
52	0x0a	10
53	0x11	17
54	0x16	22
55	0x0c	12
56	0x0f	15
57	0xe2	-30
58	0x12	18
59	0xf9	-7
60	0x0d	13
61	0xfa	-6
62	0xc6	-58
63	0x08	8
64	0xf7	-9
65	0xf4	-12
66	0x0b	11
67	0xff	-1
68	0x00	0
69	0x0b	11
70	0x09	9
71	0xe9	-23
72	0xd6	-42
73	0x0b	11
74	0x0c	12
75	0xfe	-2
76	0x19	25
77	0xfe	-2
78	0xfb	-5
79	0xe7	-25
80	0xfc	-4
81	0xf6	-10
82	0xec	-20
83	0x03	3
84	0xa7	-89
85	0x0c	12
86	0xea	-22
87	0x08	8
88	0xc7	-57
89	0x37	55
90	0xda	-38
91	0xdf	-33
92	0x93	-109
93	0xe2	-30
94	0xdd	-35
95	0xcc	-52
96	0x6c	108
97	0x00	0
98	0x50	80
99	0x1c	28
100	0x13	19
101	0x41	65
102	0x2e	46
103	0xe3	-29
104	0x38	56
105	0xc2	-62
106	0xc0	-64
107	0xfb	-5
108	0x29	41
109	0x53	83
110	0xc8	-56
111	0xf8	-8
112	0xdf	-33
113	0xee	-18
114	0xac	-84
115	0x2e	46
116	0xc0	-64
117	0x2e	46
118	0x36	54
119	0xb0	-80
120	0x00	0
121	0x13	19
122	0x21	33
123	0xef	-17
124	0xe7	-25
125	0x30	48
126	0x21	33
127	0xbe	-66
128	0xd4	-44
129	0x01	1
130	0x3b	59
131	0xf5	-11
132	0xfe	-2
133	0x1d	29
134	0xf0	-16
135	0x2d	45
136	0x04	4
137	0xee	-18
138	0x2b	43
139	0xf1	-15
140	0x21	33
141	0x00	0
142	0x13	19
143	0x0d	13
144	0xcf	-49
145	0xe8	-24
146	0x81	-127
147	0x0a	10
148	0xe7	-25
149	0x16	22
150	0x09	9
151	0xf0	-16
152	0x2e	46
153	0x1e	30
154	0xe4	-28
155	0x3f	63
156	0x06	6
157	0xf5	-11
158	0x09	9
159	0x6c	108
160	0x14	20
161	0x4b	75
162	0xf6	-10
163	0x41	65
164	0xf7	-9
165	0x06	6
166	0xdc	-36
167	0x0f	15
168	0x04	4
169	0xde	-34
170	0xc0	-64
171	0xfd	-3
172	0xa9	-87
173	0x25	37
174	0x19	25
175	0xef	-17
176	0x46	70
177	0xc0	-64
178	0xcf	-49
179	0x58	88
180	0x45	69
181	0x41	65
182	0x05	5
183	0x20	32
184	0xd9	-39
185	0x41	65
186	0xb9	-71
187	0x34	52
188	0xd9	-39
189	0x29	41
190	0x95	-107
191	0x30	48
192	0xe4	-28
193	0xc7	-57
194	0x9a	-102
195	0xe9	-23
196	0x81	-127
197	0x04	4
198	0xa7	-89
199	0xf3	-13
200	0xcf	-49
201	0x9b	-101
202	0x2c	44
203	0x07	7
204	0xba	-70
205	0xd3	-45
206	0x5e	94
207	0x3f	63
208	0x25	37
209	0x05	5
210	0x12	18
211	0xf2	-14
212	0xeb	-21
213	0x33	51
214	0x2f	47
215	0x18	24
216	0x04	4
217	0x03	3
218	0x0d	13
219	0x04	4
220	0xde	-34
221	0x08	8
222	0xd0	-48
223	0xf4	-12
224	0xe0	-32
225	0x02	2
226	0x0e	14
227	0x0a	10
228	0x19	25
229	0xec	-20
230	0xce	-50
231	0x0e	14
232	0x15	21
233	0xf0	-16
234	0xff	-1
235	0xfd	-3
236	0x1e	30
237	0xd6	-42
238	0xb7	-73
239	0xc7	-57
240	0x39	57
241	0xf3	-13
242	0x23	35
243	0xec	-20
244	0xe3	-29
245	0xed	-19
246	0xef	-17
247	0x13	19
248	0xfc	-4
249	0xed	-19
250	0xc8	-56
251	0xe8	-24
252	0xfc	-4
253	0x0c	12
254	0x03	3
255	0x18	24

quantize_1/fire4_2Stud_expand_1x1/kernel i1 [68, 1, 1, 18]
0	0xef	-17
1	0x29	41
2	0xc3	-61
3	0xcc	-52
4	0x0e	14
5	0xec	-20
6	0x44	68
7	0x1c	28
8	0xbf	-65
9	0x3c	60
10	0x2d	45
11	0x0a	10
12	0x03	3
13	0xb0	-80
14	0x81	-127
15	0x16	22
16	0x04	4
17	0x26	38
18	0x0a	10
19	0xde	-34
20	0x21	33
21	0xde	-34
22	0x48	72
23	0xf0	-16
24	0xbe	-66
25	0x0b	11
26	0xed	-19
27	0x48	72
28	0xd0	-48
29	0x7f	127
30	0x03	3
31	0x12	18
32	0xe9	-23
33	0xe1	-31
34	0xee	-18
35	0x51	81
36	0xd8	-40
37	0x21	33
38	0x03	3
39	0x26	38
40	0x54	84
41	0xe2	-30
42	0x81	-127
43	0x08	8
44	0xe5	-27
45	0xd4	-44
46	0x17	23
47	0xe5	-27
48	0x74	116
49	0xe5	-27
50	0x2f	47
51	0xca	-54
52	0xc4	-60
53	0xe1	-31
54	0x26	38
55	0xf4	-12
56	0x42	66
57	0x66	102
58	0x28	40
59	0xed	-19
60	0x1f	31
61	0x08	8
62	0xe6	-26
63	0xea	-22
64	0x20	32
65	0xef	-17
66	0x7f	127
67	0xe9	-23
68	0xe7	-25
69	0xd4	-44
70	0xfe	-2
71	0xc0	-64
72	0x1b	27
73	0xb7	-73
74	0xe4	-28
75	0x1a	26
76	0xfa	-6
77	0x3d	61
78	0x5d	93
79	0x7f	127
80	0xcc	-52
81	0xe9	-23
82	0xa4	-92
83	0x19	25
84	0x21	33
85	0xdd	-35
86	0xbe	-66
87	0xe4	-28
88	0x22	34
89	0x59	89
90	0x58	88
91	0x48	72
92	0x25	37
93	0xc4	-60
94	0xfa	-6
95	0xbf	-65
96	0x03	3
97	0x34	52
98	0x8e	-114
99	0x2f	47
100	0xdd	-35
101	0x81	-127
102	0xe6	-26
103	0xe9	-23
104	0x8d	-115
105	0x03	3
106	0xf2	-14
107	0x12	18
108	0x0d	13
109	0xf6	-10
110	0x52	82
111	0x81	-127
112	0x09	9
113	0x0b	11
114	0xf0	-16
115	0x22	34
116	0x01	1
117	0xa5	-91
118	0x22	34
119	0x1f	31
120	0x24	36
121	0x51	81
122	0xa9	-87
123	0xe1	-31
124	0x20	32
125	0xff	-1
126	0x20	32
127	0x13	19
128	0xc0	-64
129	0xa3	-93
130	0x7f	127
131	0x1a	26
132	0x15	21
133	0x4a	74
134	0xed	-19
135	0xab	-85
136	0x52	82
137	0x04	4
138	0xd0	-48
139	0x11	17
140	0x04	4
141	0x35	53
142	0xda	-38
143	0xa7	-89
144	0xbf	-65
145	0x4a	74
146	0xe8	-24
147	0x7f	127
148	0xb2	-78
149	0x19	25
150	0xe1	-31
151	0xea	-22
152	0xe9	-23
153	0x3c	60
154	0xb3	-77
155	0xac	-84
156	0x24	36
157	0x5b	91
158	0x40	64
159	0x06	6
160	0xbb	-69
161	0xfd	-3
162	0x31	49
163	0x12	18
164	0x2c	44
165	0x13	19
166	0x58	88
167	0xd6	-42
168	0x0c	12
169	0x2d	45
170	0xc6	-58
171	0x5d	93
172	0x15	21
173	0x81	-127
174	0xa8	-88
175	0xe2	-30
176	0x82	-126
177	0x2d	45
178	0x7c	124
179	0x20	32
180	0xdd	-35
181	0xb8	-72
182	0xd5	-43
183	0x38	56
184	0xc3	-61
185	0x8a	-118
186	0x52	82
187	0x7e	126
188	0x81	-127
189	0xd7	-41
190	0x18	24
191	0xe2	-30
192	0x18	24
193	0xa4	-92
194	0x77	119
195	0x27	39
196	0xb9	-71
197	0x04	4
198	0xf9	-7
199	0x1c	28
200	0x0c	12
201	0xbc	-68
202	0x06	6
203	0xdf	-33
204	0x0a	10
205	0xf6	-10
206	0xc9	-55
207	0xb8	-72
208	0x31	49
209	0xd8	-40
210	0x43	67
211	0x10	16
212	0x7f	127
213	0xc7	-57
214	0x05	5
215	0xf6	-10
216	0xf5	-11
217	0x61	97
218	0x66	102
219	0xa6	-90
220	0x9f	-97
221	0x28	40
222	0x85	-123
223	0x31	49
224	0x11	17
225	0x39	57
226	0xd6	-42
227	0xb8	-72
228	0x52	82
229	0xde	-34
230	0x81	-127
231	0xc7	-57
232	0x99	-103
233	0x1e	30
234	0x06	6
235	0x75	117
236	0x47	71
237	0x3b	59
238	0x2d	45
239	0x36	54
240	0xe1	-31
241	0x07	7
242	0x44	68
243	0x99	-103
244	0x21	33
245	0x26	38
246	0x87	-121
247	0xbd	-67
248	0x7f	127
249	0x99	-103
250	0xc0	-64
251	0x5f	95
252	0xd3	-45
253	0xd6	-42
254	0xd4	-44
255	0xea	-22

quantize_1/fire4_2Stud_expand_3x3/kernel i1 [68, 3, 3, 18]
0	0x03	3
1	0xc3	-61
2	0xea	-22
3	0xe7	-25
4	0xe9	-23
5	0x04	4
6	0xfd	-3
7	0xea	-22
8	0x9a	-102
9	0x0c	12
10	0xda	-38
11	0x23	35
12	0xdf	-33
13	0xe9	-23
14	0xe2	-30
15	0x22	34
16	0xb7	-73
17	0x06	6
18	0x19	25
19	0x2b	43
20	0x04	4
21	0xec	-20
22	0x10	16
23	0xf0	-16
24	0x0c	12
25	0x08	8
26	0x8d	-115
27	0x35	53
28	0x09	9
29	0x06	6
30	0xdd	-35
31	0x0e	14
32	0x8e	-114
33	0x0e	14
34	0xb2	-78
35	0x35	53
36	0xf3	-13
37	0xff	-1
38	0x09	9
39	0xfd	-3
40	0xdd	-35
41	0x09	9
42	0xe4	-28
43	0x1e	30
44	0x81	-127
45	0xca	-54
46	0xe1	-31
47	0xee	-18
48	0x1c	28
49	0xfc	-4
50	0xeb	-21
51	0xff	-1
52	0xca	-54
53	0x25	37
54	0x12	18
55	0x0a	10
56	0x0b	11
57	0xf0	-16
58	0xfc	-4
59	0x14	20
60	0x43	67
61	0xcb	-53
62	0xce	-50
63	0xfe	-2
64	0x26	38
65	0x02	2
66	0xee	-18
67	0x0b	11
68	0x39	57
69	0x1f	31
70	0xf3	-13
71	0xfd	-3
72	0xc5	-59
73	0x2b	43
74	0x2b	43
75	0x12	18
76	0x1b	27
77	0xdd	-35
78	0x14	20
79	0xd5	-43
80	0xb2	-78
81	0xfe	-2
82	0x36	54
83	0xf7	-9
84	0x13	19
85	0xf1	-15
86	0x1d	29
87	0x0f	15
88	0x02	2
89	0x2d	45
90	0xa5	-91
91	0xcd	-51
92	0x43	67
93	0xfc	-4
94	0x13	19
95	0x18	24
96	0xfa	-6
97	0xc8	-56
98	0xcb	-53
99	0xe6	-26
100	0x2e	46
101	0xdd	-35
102	0x1b	27
103	0x10	16
104	0x3f	63
105	0x11	17
106	0x02	2
107	0x07	7
108	0x06	6
109	0xe6	-26
110	0xed	-19
111	0xf3	-13
112	0xe9	-23
113	0xeb	-21
114	0x03	3
115	0xf8	-8
116	0x0e	14
117	0x03	3
118	0x05	5
119	0x0e	14
120	0x0d	13
121	0xda	-38
122	0x0f	15
123	0x03	3
124	0xfe	-2
125	0xe7	-25
126	0xfb	-5
127	0x16	22
128	0x10	16
129	0xe8	-24
130	0xe3	-29
131	0xe0	-32
132	0x2b	43
133	0xe1	-31
134	0x17	23
135	0x0d	13
136	0x1a	26
137	0xeb	-21
138	0x0a	10
139	0x00	0
140	0x06	6
141	0x02	2
142	0x1e	30
143	0xfb	-5
144	0xef	-17
145	0xdd	-35
146	0xf3	-13
147	0xd5	-43
148	0xec	-20
149	0x14	20
150	0xfe	-2
151	0xe1	-31
152	0x57	87
153	0xcc	-52
154	0x10	16
155	0xf1	-15
156	0x10	16
157	0x1b	27
158	0x18	24
159	0xf7	-9
160	0x08	8
161	0xdb	-37
162	0x11	17
163	0x21	33
164	0xef	-17
165	0x01	1
166	0x17	23
167	0x0c	12
168	0x02	2
169	0x1b	27
170	0xcf	-49
171	0x31	49
172	0xdf	-33
173	0x26	38
174	0xe2	-30
175	0x1d	29
176	0x14	20
177	0xbb	-69
178	0xe2	-30
179	0xc9	-55
180	0x07	7
181	0x0b	11
182	0x30	48
183	0x37	55
184	0x27	39
185	0x1d	29
186	0x08	8
187	0x4c	76
188	0xe2	-30
189	0xf5	-11
190	0xed	-19
191	0x1b	27
192	0x35	53
193	0x11	17
194	0x23	35
195	0xfc	-4
196	0xe1	-31
197	0x1a	26
198	0x01	1
199	0x4a	74
200	0x23	35
201	0x2c	44
202	0x14	20
203	0x03	3
204	0x18	24
205	0x2b	43
206	0x29	41
207	0x04	4
208	0x2b	43
209	0x1e	30
210	0x1f	31
211	0xe9	-23
212	0x4a	74
213	0x35	53
214	0x11	17
215	0x24	36
216	0xe8	-24
217	0xcb	-53
218	0xb8	-72
219	0x81	-127
220	0xb2	-78
221	0xc4	-60
222	0xdc	-36
223	0xc0	-64
224	0xc1	-63
225	0xf9	-7
226	0x2c	44
227	0xc1	-63
228	0xd2	-46
229	0x01	1
230	0xc5	-59
231	0x2e	46
232	0x0c	12
233	0xd0	-48
234	0xc8	-56
235	0xe6	-26
236	0xde	-34
237	0xdd	-35
238	0xf9	-7
239	0x04	4
240	0xb3	-77
241	0x01	1
242	0xc0	-64
243	0x13	19
244	0xd4	-44
245	0xf6	-10
246	0x03	3
247	0x15	21
248	0xf5	-11
249	0xb2	-78
250	0xd9	-39
251	0xd6	-42
252	0xf7	-9
253	0x1e	30
254	0x2a	42
255	0x40	64

quantize_1/fire4_2Stud_squeeze/kernel i1 [18, 1, 1, 88]
0	0x09	9
1	0xbf	-65
2	0x15	21
3	0x01	1
4	0xcf	-49
5	0x90	-112
6	0xda	-38
7	0x06	6
8	0xe2	-30
9	0xa5	-91
10	0x04	4
11	0x3c	60
12	0x19	25
13	0x9b	-101
14	0xec	-20
15	0xc4	-60
16	0x12	18
17	0xea	-22
18	0x5d	93
19	0xf3	-13
20	0x54	84
21	0x1a	26
22	0x36	54
23	0xe7	-25
24	0xfe	-2
25	0x00	0
26	0x8e	-114
27	0x32	50
28	0xe4	-28
29	0xfe	-2
30	0x16	22
31	0x03	3
32	0x25	37
33	0xc5	-59
34	0x04	4
35	0x03	3
36	0xd6	-42
37	0x28	40
38	0x0c	12
39	0x81	-127
40	0xfd	-3
41	0x19	25
42	0x21	33
43	0xf8	-8
44	0x3d	61
45	0xd6	-42
46	0xe5	-27
47	0x04	4
48	0x25	37
49	0xea	-22
50	0x39	57
51	0xe1	-31
52	0xf3	-13
53	0xff	-1
54	0xf1	-15
55	0xe0	-32
56	0xad	-83
57	0xfb	-5
58	0x0e	14
59	0xf2	-14
60	0xe7	-25
61	0x11	17
62	0xe2	-30
63	0xf1	-15
64	0xf0	-16
65	0xd8	-40
66	0xc2	-62
67	0xfc	-4
68	0xb9	-71
69	0x00	0
70	0xd3	-45
71	0x2f	47
72	0x40	64
73	0x38	56
74	0x28	40
75	0xec	-20
76	0x33	51
77	0xfd	-3
78	0x63	99
79	0xa8	-88
80	0xf3	-13
81	0xdb	-37
82	0x16	22
83	0x0b	11
84	0x94	-108
85	0xce	-50
86	0xbc	-68
87	0x54	84
88	0x66	102
89	0xfe	-2
90	0x26	38
91	0x22	34
92	0xe5	-27
93	0xf1	-15
94	0x2a	42
95	0x1e	30
96	0x71	113
97	0xf0	-16
98	0xc7	-57
99	0x47	71
100	0x26	38
101	0x0f	15
102	0xdf	-33
103	0xdc	-36
104	0x81	-127
105	0xf8	-8
106	0xcb	-53
107	0xe6	-26
108	0xd0	-48
109	0x50	80
110	0xfb	-5
111	0x68	104
112	0xff	-1
113	0xe4	-28
114	0xc5	-59
115	0xf6	-10
116	0x25	37
117	0x13	19
118	0xd3	-45
119	0x9d	-99
120	0x62	98
121	0xa9	-87
122	0x4c	76
123	0x22	34
124	0xd2	-46
125	0xeb	-21
126	0x7d	125
127	0xe6	-26
128	0x19	25
129	0x01	1
130	0xfb	-5
131	0xd0	-48
132	0x3b	59
133	0xee	-18
134	0x32	50
135	0x25	37
136	0xeb	-21
137	0xeb	-21
138	0x43	67
139	0xd2	-46
140	0x04	4
141	0xe8	-24
142	0x1a	26
143	0x12	18
144	0x10	16
145	0xce	-50
146	0xcf	-49
147	0xc7	-57
148	0x03	3
149	0x3f	63
150	0xdc	-36
151	0xe3	-29
152	0x27	39
153	0xe1	-31
154	0xe1	-31
155	0xf1	-15
156	0x1a	26
157	0x07	7
158	0xfa	-6
159	0xfc	-4
160	0xf1	-15
161	0xfa	-6
162	0x0b	11
163	0xee	-18
164	0x64	100
165	0x17	23
166	0xd7	-41
167	0x21	33
168	0xf5	-11
169	0xf5	-11
170	0x48	72
171	0xfd	-3
172	0xd0	-48
173	0x18	24
174	0xd9	-39
175	0xc9	-55
176	0xfd	-3
177	0xb5	-75
178	0xb5	-75
179	0xfa	-6
180	0x30	48
181	0xea	-22
182	0xdc	-36
183	0xea	-22
184	0x7b	123
185	0xf3	-13
186	0x55	85
187	0xd0	-48
188	0xd6	-42
189	0x0c	12
190	0xd7	-41
191	0xf2	-14
192	0xf0	-16
193	0xeb	-21
194	0x26	38
195	0xfa	-6
196	0x37	55
197	0xab	-85
198	0xf1	-15
199	0x7b	123
200	0xeb	-21
201	0xba	-70
202	0x28	40
203	0x7f	127
204	0xc8	-56
205	0xdc	-36
206	0xb4	-76
207	0x16	22
208	0xd4	-44
209	0x04	4
210	0xbe	-66
211	0xc4	-60
212	0x1a	26
213	0x07	7
214	0x49	73
215	0xfa	-6
216	0xe0	-32
217	0x30	48
218	0x35	53
219	0xaf	-81
220	0x09	9
221	0xfc	-4
222	0xf1	-15
223	0xf8	-8
224	0x28	40
225	0xff	-1
226	0x0d	13
227	0x2d	45
228	0xee	-18
229	0xf9	-7
230	0xcf	-49
231	0xde	-34
232	0x0b	11
233	0xd2	-46
234	0x08	8
235	0xb1	-79
236	0xf0	-16
237	0x26	38
238	0x22	34
239	0x19	25
240	0xec	-20
241	0xd5	-43
242	0x2a	42
243	0x61	97
244	0xd4	-44
245	0xe8	-24
246	0x2e	46
247	0x21	33
248	0x06	6
249	0xeb	-21
250	0x19	25
251	0x08	8
252	0x1c	28
253	0xe1	-31
254	0xfc	-4
255	0x16	22

quantize_1/fire5_2Stud_expand_1x1/kernel i1 [104, 1, 1, 26]
0	0x2d	45
1	0x18	24
2	0x02	2
3	0xea	-22
4	0x02	2
5	0xc1	-63
6	0x1c	28
7	0x23	35
8	0x3c	60
9	0xe6	-26
10	0xe2	-30
11	0xf8	-8
12	0xe3	-29
13	0xc5	-59
14	0xfc	-4
15	0xf6	-10
16	0xe7	-25
17	0x7f	127
18	0xf2	-14
19	0xe7	-25
20	0xff	-1
21	0xd2	-46
22	0x06	6
23	0xc3	-61
24	0xc8	-56
25	0xe1	-31
26	0xd8	-40
27	0x4d	77
28	0xa9	-87
29	0x22	34
30	0x08	8
31	0x12	18
32	0x14	20
33	0xbf	-65
34	0x15	21
35	0x05	5
36	0x81	-127
37	0x08	8
38	0x21	33
39	0xea	-22
40	0xd5	-43
41	0xad	-83
42	0xdc	-36
43	0xe1	-31
44	0x1d	29
45	0xfe	-2
46	0xf6	-10
47	0x1c	28
48	0xe4	-28
49	0xe0	-32
50	0x13	19
51	0xde	-34
52	0xff	-1
53	0xc8	-56
54	0x18	24
55	0x24	36
56	0x42	66
57	0x1e	30
58	0xe1	-31
59	0x0c	12
60	0x28	40
61	0xee	-18
62	0xea	-22
63	0x12	18
64	0xd5	-43
65	0xe1	-31
66	0xf5	-11
67	0xd7	-41
68	0x3e	62
69	0x2d	45
70	0xc1	-63
71	0x06	6
72	0x0f	15
73	0x1a	26
74	0x02	2
75	0x19	25
76	0x81	-127
77	0xd1	-47
78	0xce	-50
79	0xd3	-45
80	0x29	41
81	0x16	22
82	0x10	16
83	0xc5	-59
84	0xfc	-4
85	0x71	113
86	0xe4	-28
87	0xcb	-53
88	0x15	21
89	0x31	49
90	0x41	65
91	0x0e	14
92	0x03	3
93	0x20	32
94	0xcf	-49
95	0xdd	-35
96	0x10	16
97	0x81	-127
98	0x3e	62
99	0x16	22
100	0xd4	-44
101	0xd9	-39
102	0xcc	-52
103	0x19	25
104	0xcf	-49
105	0x33	51
106	0xf5	-11
107	0xfa	-6
108	0xc4	-60
109	0xd0	-48
110	0xf5	-11
111	0xe2	-30
112	0x18	24
113	0x7f	127
114	0xbd	-67
115	0xf5	-11
116	0xf8	-8
117	0xa0	-96
118	0xe5	-27
119	0x2c	44
120	0xf1	-15
121	0xe3	-29
122	0xfe	-2
123	0xf5	-11
124	0xb0	-80
125	0x28	40
126	0x20	32
127	0xa6	-90
128	0x18	24
129	0xd3	-45
130	0x11	17
131	0xd0	-48
132	0x18	24
133	0x48	72
134	0x01	1
135	0xeb	-21
136	0xfa	-6
137	0x5c	92
138	0xd6	-42
139	0x94	-108
140	0xc7	-57
141	0xf3	-13
142	0xfa	-6
143	0x2c	44
144	0x20	32
145	0x3c	60
146	0x07	7
147	0x81	-127
148	0x18	24
149	0xaa	-86
150	0x15	21
151	0x2a	42
152	0x01	1
153	0x15	21
154	0x18	24
155	0xd3	-45
156	0xfb	-5
157	0x1b	27
158	0x23	35
159	0xdd	-35
160	0xf9	-7
161	0xee	-18
162	0xc9	-55
163	0x16	22
164	0x01	1
165	0xc6	-58
166	0x25	37
167	0x0f	15
168	0xbe	-66
169	0x1c	28
170	0x0b	11
171	0xf3	-13
172	0xe6	-26
173	0x04	4
174	0xd9	-39
175	0xdb	-37
176	0x09	9
177	0x0a	10
178	0x0c	12
179	0x10	16
180	0x7f	127
181	0xc6	-58
182	0xcf	-49
183	0x45	69
184	0x07	7
185	0x26	38
186	0xfb	-5
187	0xde	-34
188	0xe9	-23
189	0xd6	-42
190	0xca	-54
191	0x16	22
192	0x3a	58
193	0x02	2
194	0xa9	-87
195	0xf7	-9
196	0x27	39
197	0x92	-110
198	0xf2	-14
199	0xde	-34
200	0x07	7
201	0x1c	28
202	0x81	-127
203	0x1a	26
204	0x45	69
205	0x09	9
206	0x57	87
207	0x03	3
208	0x81	-127
209	0x24	36
210	0xf5	-11
211	0xff	-1
212	0x8b	-117
213	0x00	0
214	0xf8	-8
215	0xc5	-59
216	0x03	3
217	0xd9	-39
218	0x3d	61
219	0x68	104
220	0xb8	-72
221	0x0f	15
222	0x00	0
223	0x17	23
224	0x2d	45
225	0xfd	-3
226	0x24	36
227	0xc9	-55
228	0x39	57
229	0xec	-20
230	0xd7	-41
231	0xa7	-89
232	0xf7	-9
233	0x02	2
234	0x11	17
235	0xcb	-53
236	0xd6	-42
237	0x26	38
238	0xf1	-15
239	0x11	17
240	0x10	16
241	0xd3	-45
242	0xc2	-62
243	0x19	25
244	0x2b	43
245	0x81	-127
246	0xa5	-91
247	0x49	73
248	0x01	1
249	0x17	23
250	0x00	0
251	0xeb	-21
252	0x01	1
253	0xe2	-30
254	0x08	8
255	0xfb	-5

quantize_1/fire5_2Stud_expand_3x3/kernel i1 [104, 3, 3, 26]
0	0xe5	-27
1	0x0c	12
2	0x21	33
3	0x3b	59
4	0xd1	-47
5	0xf9	-7
6	0x33	51
7	0xcf	-49
8	0xee	-18
9	0x31	49
10	0x20	32
11	0x46	70
12	0xea	-22
13	0xe8	-24
14	0x2a	42
15	0xd7	-41
16	0xbd	-67
17	0x17	23
18	0x54	84
19	0xb7	-73
20	0xcb	-53
21	0x08	8
22	0x44	68
23	0x4e	78
24	0x06	6
25	0xde	-34
26	0x07	7
27	0xff	-1
28	0xd9	-39
29	0xda	-38
30	0x1f	31
31	0xd8	-40
32	0x45	69
33	0x2d	45
34	0xfa	-6
35	0x07	7
36	0x25	37
37	0xf3	-13
38	0x15	21
39	0x19	25
40	0xed	-19
41	0x15	21
42	0xf3	-13
43	0xc4	-60
44	0xde	-34
45	0x1e	30
46	0xe3	-29
47	0x1e	30
48	0xf9	-7
49	0xf6	-10
50	0x10	16
51	0xfc	-4
52	0x06	6
53	0xea	-22
54	0x0c	12
55	0xfe	-2
56	0x53	83
57	0xec	-20
58	0xf1	-15
59	0x0e	14
60	0x22	34
61	0x23	35
62	0x16	22
63	0x10	16
64	0x1c	28
65	0x1e	30
66	0x25	37
67	0x0e	14
68	0xf1	-15
69	0x0a	10
70	0xf4	-12
71	0x06	6
72	0xde	-34
73	0xfb	-5
74	0xfa	-6
75	0xf9	-7
76	0x0a	10
77	0xf4	-12
78	0xe2	-30
79	0xeb	-21
80	0x0b	11
81	0x3d	61
82	0x59	89
83	0xf2	-14
84	0x93	-109
85	0x9f	-97
86	0x51	81
87	0x21	33
88	0xd1	-47
89	0x78	120
90	0x0e	14
91	0x1e	30
92	0xcf	-49
93	0x86	-122
94	0xb0	-80
95	0x3b	59
96	0x41	65
97	0xb3	-77
98	0xd3	-45
99	0xdb	-37
100	0xb2	-78
101	0xec	-20
102	0xf8	-8
103	0x4a	74
104	0x0f	15
105	0x25	37
106	0xdd	-35
107	0xea	-22
108	0x4b	75
109	0x62	98
110	0x00	0
111	0x38	56
112	0xd0	-48
113	0xa9	-87
114	0xe5	-27
115	0x94	-108
116	0x41	65
117	0x5c	92
118	0x08	8
119	0x46	70
120	0xea	-22
121	0xa3	-93
122	0xcd	-51
123	0x02	2
124	0x07	7
125	0xb0	-80
126	0xf2	-14
127	0xfb	-5
128	0x0d	13
129	0x22	34
130	0x0f	15
131	0x24	36
132	0xe9	-23
133	0x26	38
134	0x0b	11
135	0xbc	-68
136	0x00	0
137	0x1b	27
138	0xc9	-55
139	0xaf	-81
140	0xff	-1
141	0xb6	-74
142	0x35	53
143	0x02	2
144	0x2b	43
145	0xf0	-16
146	0x0b	11
147	0xe2	-30
148	0xe5	-27
149	0xee	-18
150	0x1d	29
151	0xcc	-52
152	0x58	88
153	0xff	-1
154	0xf5	-11
155	0x0f	15
156	0x13	19
157	0xfe	-2
158	0xfa	-6
159	0xf6	-10
160	0xdb	-37
161	0xf4	-12
162	0x11	17
163	0xea	-22
164	0x4b	75
165	0x0c	12
166	0xe7	-25
167	0x30	48
168	0x02	2
169	0x17	23
170	0xd2	-46
171	0x39	57
172	0x81	-127
173	0x17	23
174	0xcf	-49
175	0x0e	14
176	0xfb	-5
177	0x06	6
178	0x99	-103
179	0x16	22
180	0xf7	-9
181	0x44	68
182	0x04	4
183	0x2d	45
184	0xe8	-24
185	0xd5	-43
186	0xd4	-44
187	0x07	7
188	0x11	17
189	0xe8	-24
190	0x08	8
191	0x13	19
192	0x1a	26
193	0xcf	-49
194	0xd6	-42
195	0x05	5
196	0x08	8
197	0x36	54
198	0xe0	-32
199	0x01	1
200	0x02	2
201	0xfe	-2
202	0x0c	12
203	0x1c	28
204	0x15	21
205	0xf0	-16
206	0x06	6
207	0xcf	-49
208	0xed	-19
209	0x0a	10
210	0xfd	-3
211	0x1e	30
212	0x2f	47
213	0xec	-20
214	0xf4	-12
215	0xd5	-43
216	0x29	41
217	0x1c	28
218	0x0b	11
219	0x0b	11
220	0xfe	-2
221	0xf0	-16
222	0xf0	-16
223	0x11	17
224	0x06	6
225	0x16	22
226	0x05	5
227	0x07	7
228	0x0d	13
229	0x11	17
230	0x1a	26
231	0x09	9
232	0x02	2
233	0xfe	-2
234	0x05	5
235	0x03	3
236	0x11	17
237	0x07	7
238	0x05	5
239	0x2e	46
240	0x1a	26
241	0x2a	42
242	0x08	8
243	0xfb	-5
244	0x12	18
245	0xf7	-9
246	0xf6	-10
247	0x96	-106
248	0x6b	107
249	0xae	-82
250	0x18	24
251	0x13	19
252	0x09	9
253	0xe6	-26
254	0x3b	59
255	0x05	5

quantize_1/fire5_2Stud_squeeze/kernel i1 [26, 1, 1, 136]
0	0x0f	15
1	0x3f	63
2	0xf1	-15
3	0x39	57
4	0xf1	-15
5	0x2b	43
6	0xd9	-39
7	0xdf	-33
8	0xcb	-53
9	0x0a	10
10	0xc0	-64
11	0xea	-22
12	0xc8	-56
13	0x36	54
14	0x0f	15
15	0xab	-85
16	0x01	1
17	0xe2	-30
18	0x07	7
19	0xc7	-57
20	0xf7	-9
21	0x21	33
22	0x02	2
23	0x3b	59
24	0xfe	-2
25	0x01	1
26	0x7f	127
27	0x19	25
28	0xf1	-15
29	0x30	48
30	0x23	35
31	0xe5	-27
32	0x01	1
33	0x40	64
34	0x14	20
35	0xe9	-23
36	0x16	22
37	0x12	18
38	0x10	16
39	0xfc	-4
40	0x08	8
41	0x03	3
42	0xdb	-37
43	0x1f	31
44	0x15	21
45	0xc9	-55
46	0x12	18
47	0xc6	-58
48	0x17	23
49	0x22	34
50	0xe7	-25
51	0xdf	-33
52	0x58	88
53	0xd7	-41
54	0xfd	-3
55	0xe8	-24
56	0xfb	-5
57	0xf5	-11
58	0x21	33
59	0x1d	29
60	0x53	83
61	0x0a	10
62	0x0b	11
63	0x15	21
64	0xa3	-93
65	0x12	18
66	0xf1	-15
67	0xf6	-10
68	0x2c	44
69	0x52	82
70	0x1f	31
71	0x06	6
72	0x2b	43
73	0x06	6
74	0xf8	-8
75	0xfc	-4
76	0x00	0
77	0xe8	-24
78	0x0a	10
79	0xff	-1
80	0xfe	-2
81	0xe6	-26
82	0x22	34
83	0xd0	-48
84	0xe8	-24
85	0x1e	30
86	0x16	22
87	0xeb	-21
88	0x11	17
89	0xf0	-16
90	0x08	8
91	0xe1	-31
92	0xf6	-10
93	0x06	6
94	0x06	6
95	0x03	3
96	0x02	2
97	0xf5	-11
98	0xd0	-48
99	0x24	36
100	0x01	1
101	0x20	32
102	0xf3	-13
103	0x1b	27
104	0xee	-18
105	0x11	17
106	0x20	32
107	0xf3	-13
108	0x01	1
109	0xe3	-29
110	0x43	67
111	0x27	39
112	0xf4	-12
113	0xd1	-47
114	0xe9	-23
115	0xee	-18
116	0x0c	12
117	0x0f	15
118	0xe8	-24
119	0xfe	-2
120	0x24	36
121	0x1b	27
122	0xe3	-29
123	0xf2	-14
124	0xe8	-24
125	0xdd	-35
126	0xf0	-16
127	0xf0	-16
128	0xf2	-14
129	0x0a	10
130	0x17	23
131	0x1d	29
132	0x12	18
133	0xe6	-26
134	0x09	9
135	0xf7	-9
136	0xe8	-24
137	0x4e	78
138	0x29	41
139	0xed	-19
140	0xd7	-41
141	0x28	40
142	0xdc	-36
143	0xfc	-4
144	0x2e	46
145	0xcb	-53
146	0x23	35
147	0xf3	-13
148	0x27	39
149	0xf5	-11
150	0xc7	-57
151	0x26	38
152	0xfa	-6
153	0xeb	-21
154	0x2b	43
155	0xdf	-33
156	0x94	-108
157	0x33	51
158	0xf6	-10
159	0xcc	-52
160	0x20	32
161	0x18	24
162	0x81	-127
163	0xe6	-26
164	0xed	-19
165	0xd4	-44
166	0x12	18
167	0x0c	12
168	0xd3	-45
169	0xa4	-92
170	0x21	33
171	0xc5	-59
172	0x2b	43
173	0xff	-1
174	0xce	-50
175	0x0c	12
176	0x39	57
177	0xeb	-21
178	0x56	86
179	0xff	-1
180	0xa6	-90
181	0x4e	78
182	0x2b	43
183	0x56	86
184	0x30	48
185	0xd7	-41
186	0x1d	29
187	0xf7	-9
188	0x1a	26
189	0xe6	-26
190	0x03	3
191	0x38	56
192	0xd9	-39
193	0x16	22
194	0xfc	-4
195	0xe7	-25
196	0x85	-123
197	0x2d	45
198	0xda	-38
199	0x0c	12
200	0xf6	-10
201	0xe3	-29
202	0xf2	-14
203	0xf2	-14
204	0xef	-17
205	0xe3	-29
206	0xcb	-53
207	0xa8	-88
208	0x10	16
209	0x27	39
210	0x1c	28
211	0xe6	-26
212	0xe2	-30
213	0xbb	-69
214	0x07	7
215	0xfe	-2
216	0x34	52
217	0xf7	-9
218	0xff	-1
219	0xd7	-41
220	0xf6	-10
221	0xbd	-67
222	0x11	17
223	0x15	21
224	0xdf	-33
225	0xf4	-12
226	0xe6	-26
227	0xf2	-14
228	0xd4	-44
229	0x4e	78
230	0x1e	30
231	0x3c	60
232	0xff	-1
233	0x0c	12
234	0xec	-20
235	0x12	18
236	0x1a	26
237	0x10	16
238	0x42	66
239	0x08	8
240	0xe6	-26
241	0x11	17
242	0xf6	-10
243	0x14	20
244	0x1c	28
245	0x07	7
246	0x0e	14
247	0x04	4
248	0xef	-17
249	0x27	39
250	0xf9	-7
251	0x16	22
252	0x13	19
253	0x19	25
254	0xe7	-25
255	0xfd	-3

quantize_1/fire6_2Stud_expand_1x1/kernel i1 [144, 1, 1, 36]
0	0xf4	-12
1	0xc7	-57
2	0xe5	-27
3	0xf7	-9
4	0xe8	-24
5	0xd5	-43
6	0x05	5
7	0x34	52
8	0xed	-19
9	0x8d	-115
10	0x19	25
11	0xc8	-56
12	0xaa	-86
13	0x4b	75
14	0x81	-127
15	0x35	53
16	0x2c	44
17	0xfd	-3
18	0x23	35
19	0x3a	58
20	0x0c	12
21	0xbf	-65
22	0x12	18
23	0xc9	-55
24	0xe5	-27
25	0x2e	46
26	0xef	-17
27	0x36	54
28	0x28	40
29	0x19	25
30	0xa8	-88
31	0x1a	26
32	0xc5	-59
33	0x0e	14
34	0xe1	-31
35	0xa2	-94
36	0xf2	-14
37	0x2c	44
38	0x81	-127
39	0xf4	-12
40	0x35	53
41	0x29	41
42	0x16	22
43	0xfe	-2
44	0x23	35
45	0x35	53
46	0x00	0
47	0x42	66
48	0x52	82
49	0xee	-18
50	0xfb	-5
51	0x1d	29
52	0x03	3
53	0xab	-85
54	0xd9	-39
55	0x34	52
56	0xca	-54
57	0xf8	-8
58	0x19	25
59	0x20	32
60	0xc0	-64
61	0xc8	-56
62	0x0b	11
63	0xde	-34
64	0xf8	-8
65	0x20	32
66	0x4b	75
67	0x56	86
68	0xf2	-14
69	0xe0	-32
70	0xc3	-61
71	0x41	65
72	0x14	20
73	0x3b	59
74	0xc3	-61
75	0x0e	14
76	0xc2	-62
77	0x03	3
78	0x40	64
79	0xff	-1
80	0x15	21
81	0xfb	-5
82	0xcf	-49
83	0xea	-22
84	0xcf	-49
85	0xf8	-8
86	0xec	-20
87	0x2f	47
88	0x20	32
89	0xea	-22
90	0xf6	-10
91	0xb5	-75
92	0x32	50
93	0xfa	-6
94	0x16	22
95	0x97	-105
96	0x12	18
97	0xbd	-67
98	0x81	-127
99	0xe8	-24
100	0xd2	-46
101	0xfe	-2
102	0x1a	26
103	0xf1	-15
104	0xbf	-65
105	0x95	-107
106	0x7a	122
107	0xe9	-23
108	0x69	105
109	0xe7	-25
110	0xf5	-11
111	0x9a	-102
112	0x2e	46
113	0x0e	14
114	0xd7	-41
115	0x06	6
116	0x28	40
117	0xdb	-37
118	0x01	1
119	0x15	21
120	0x0a	10
121	0x96	-106
122	0xe0	-32
123	0xcd	-51
124	0xd6	-42
125	0xf7	-9
126	0xf9	-7
127	0x9e	-98
128	0x10	16
129	0xd7	-41
130	0xcf	-49
131	0xf3	-13
132	0xdd	-35
133	0x20	32
134	0x1d	29
135	0xf5	-11
136	0x81	-127
137	0xf0	-16
138	0xb8	-72
139	0x0d	13
140	0xac	-84
141	0x06	6
142	0x06	6
143	0xd1	-47
144	0x04	4
145	0xf9	-7
146	0xe6	-26
147	0x0e	14
148	0xde	-34
149	0x04	4
150	0x02	2
151	0xfc	-4
152	0xb4	-76
153	0x14	20
154	0x2a	42
155	0x1e	30
156	0xe9	-23
157	0x07	7
158	0xe5	-27
159	0x0f	15
160	0xff	-1
161	0x13	19
162	0x08	8
163	0x8c	-116
164	0xf2	-14
165	0xfb	-5
166	0x1f	31
167	0xe2	-30
168	0xf0	-16
169	0x06	6
170	0x34	52
171	0x14	20
172	0x08	8
173	0xfc	-4
174	0x0e	14
175	0xef	-17
176	0x01	1
177	0x03	3
178	0x81	-127
179	0xed	-19
180	0x0c	12
181	0x06	6
182	0x26	38
183	0xf8	-8
184	0xf7	-9
185	0x00	0
186	0x01	1
187	0x12	18
188	0x15	21
189	0x36	54
190	0x17	23
191	0x0e	14
192	0x29	41
193	0xeb	-21
194	0x2d	45
195	0x0f	15
196	0x11	17
197	0x81	-127
198	0xc4	-60
199	0xf8	-8
200	0x08	8
201	0x15	21
202	0xe5	-27
203	0xe8	-24
204	0x13	19
205	0xe4	-28
206	0xd6	-42
207	0xca	-54
208	0xf0	-16
209	0xbe	-66
210	0xee	-18
211	0x07	7
212	0xf3	-13
213	0xe6	-26
214	0xe5	-27
215	0xe2	-30
216	0xf2	-14
217	0x1c	28
218	0x39	57
219	0x1f	31
220	0xbe	-66
221	0xd4	-44
222	0x09	9
223	0xf9	-7
224	0xfe	-2
225	0x21	33
226	0x05	5
227	0x81	-127
228	0xbd	-67
229	0x3a	58
230	0xbf	-65
231	0xaf	-81
232	0xdf	-33
233	0x07	7
234	0xd3	-45
235	0x45	69
236	0xff	-1
237	0x05	5
238	0x22	34
239	0xd1	-47
240	0x18	24
241	0x04	4
242	0xf2	-14
243	0x08	8
244	0xec	-20
245	0x40	64
246	0xc0	-64
247	0xf4	-12
248	0xc6	-58
249	0xc4	-60
250	0x1a	26
251	0xd0	-48
252	0xfc	-4
253	0xdc	-36
254	0xf9	-7
255	0xcf	-49

quantize_1/fire6_2Stud_expand_3x3/kernel i1 [144, 3, 3, 36]
0	0x3e	62
1	0x4f	79
2	0xb5	-75
3	0x11	17
4	0x04	4
5	0x2a	42
6	0x19	25
7	0xf5	-11
8	0x2a	42
9	0x53	83
10	0xfe	-2
11	0xf8	-8
12	0xe7	-25
13	0xfd	-3
14	0xda	-38
15	0x39	57
16	0x5b	91
17	0x81	-127
18	0xd0	-48
19	0xfe	-2
20	0x1c	28
21	0xe4	-28
22	0x15	21
23	0x2e	46
24	0x20	32
25	0x37	55
26	0xc4	-60
27	0xab	-85
28	0x92	-110
29	0x1c	28
30	0xc1	-63
31	0xe1	-31
32	0xf4	-12
33	0x0c	12
34	0x2b	43
35	0x15	21
36	0x14	20
37	0x0b	11
38	0xf2	-14
39	0x10	16
40	0xf9	-7
41	0xff	-1
42	0x1c	28
43	0x11	17
44	0x03	3
45	0x15	21
46	0x03	3
47	0xf6	-10
48	0xaf	-81
49	0x21	33
50	0xe8	-24
51	0x01	1
52	0x22	34
53	0xcc	-52
54	0xeb	-21
55	0xe3	-29
56	0x16	22
57	0xed	-19
58	0xd0	-48
59	0xde	-34
60	0x1b	27
61	0xf2	-14
62	0x0a	10
63	0xcd	-51
64	0xbb	-69
65	0x08	8
66	0xd6	-42
67	0xf3	-13
68	0xed	-19
69	0x34	52
70	0xe2	-30
71	0x09	9
72	0x28	40
73	0x32	50
74	0xeb	-21
75	0x1c	28
76	0x17	23
77	0x04	4
78	0x15	21
79	0x00	0
80	0x15	21
81	0x2d	45
82	0xe6	-26
83	0x01	1
84	0xe3	-29
85	0x10	16
86	0xdc	-36
87	0xf1	-15
88	0x08	8
89	0xd2	-46
90	0xd2	-46
91	0x1c	28
92	0x20	32
93	0xdb	-37
94	0xf5	-11
95	0x0e	14
96	0x32	50
97	0x00	0
98	0x21	33
99	0x0e	14
100	0xe8	-24
101	0x03	3
102	0xba	-70
103	0xd9	-39
104	0x2c	44
105	0x34	52
106	0x0d	13
107	0x24	36
108	0xfd	-3
109	0x11	17
110	0xc5	-59
111	0xe7	-25
112	0x0d	13
113	0x01	1
114	0x0e	14
115	0x00	0
116	0x27	39
117	0x0b	11
118	0x02	2
119	0xbf	-65
120	0x23	35
121	0xe5	-27
122	0x0f	15
123	0x07	7
124	0x24	36
125	0xe4	-28
126	0x2d	45
127	0x36	54
128	0xcd	-51
129	0x30	48
130	0x06	6
131	0x0f	15
132	0x07	7
133	0x1a	26
134	0xe7	-25
135	0x9f	-97
136	0xfe	-2
137	0x00	0
138	0xe6	-26
139	0xc8	-56
140	0xe5	-27
141	0xe2	-30
142	0x39	57
143	0x0c	12
144	0xd7	-41
145	0xd0	-48
146	0xe4	-28
147	0xfd	-3
148	0xe8	-24
149	0xd3	-45
150	0xf8	-8
151	0x13	19
152	0xfc	-4
153	0xb9	-71
154	0x27	39
155	0x16	22
156	0x06	6
157	0xf1	-15
158	0x1d	29
159	0xf7	-9
160	0xe2	-30
161	0xfb	-5
162	0x12	18
163	0x0a	10
164	0xf4	-12
165	0x0b	11
166	0xf3	-13
167	0xfc	-4
168	0x1c	28
169	0xd3	-45
170	0x14	20
171	0xe2	-30
172	0xe5	-27
173	0xed	-19
174	0x09	9
175	0xb8	-72
176	0xe6	-26
177	0x0e	14
178	0x07	7
179	0xf6	-10
180	0xef	-17
181	0x39	57
182	0xfa	-6
183	0xf3	-13
184	0xfc	-4
185	0xe3	-29
186	0xfe	-2
187	0x04	4
188	0x08	8
189	0x10	16
190	0xd6	-42
191	0xe1	-31
192	0x1a	26
193	0xf4	-12
194	0x0e	14
195	0xde	-34
196	0xff	-1
197	0xfd	-3
198	0x0b	11
199	0x4d	77
200	0xed	-19
201	0xf2	-14
202	0x01	1
203	0x01	1
204	0x30	48
205	0xe4	-28
206	0x06	6
207	0xfe	-2
208	0xda	-38
209	0xe4	-28
210	0xf3	-13
211	0xd3	-45
212	0xfa	-6
213	0xf6	-10
214	0x38	56
215	0xf8	-8
216	0xf1	-15
217	0x18	24
218	0xed	-19
219	0xd7	-41
220	0x1e	30
221	0x25	37
222	0xef	-17
223	0xd1	-47
224	0xc3	-61
225	0xde	-34
226	0xc4	-60
227	0xaa	-86
228	0x0d	13
229	0xcf	-49
230	0xc8	-56
231	0x08	8
232	0x02	2
233	0xdf	-33
234	0x18	24
235	0x58	88
236	0xd6	-42
237	0x1a	26
238	0x27	39
239	0x10	16
240	0xf3	-13
241	0x1f	31
242	0x01	1
243	0xfa	-6
244	0xf4	-12
245	0x18	24
246	0xea	-22
247	0xa5	-91
248	0x05	5
249	0xf1	-15
250	0x33	51
251	0x35	53
252	0xc7	-57
253	0x03	3
254	0x1f	31
255	0xed	-19

quantize_1/fire6_2Stud_squeeze/kernel i1 [36, 1, 1, 208]
0	0x3f	63
1	0xe5	-27
2	0xfd	-3
3	0xb5	-75
4	0x12	18
5	0xf8	-8
6	0x5e	94
7	0xb9	-71
8	0xd7	-41
9	0x0f	15
10	0xaa	-86
11	0x1c	28
12	0x07	7
13	0xdd	-35
14	0xe0	-32
15	0x09	9
16	0xc7	-57
17	0x4a	74
18	0xc3	-61
19	0x30	48
20	0xca	-54
21	0x53	83
22	0xfe	-2
23	0x12	18
24	0xcb	-53
25	0xfc	-4
26	0xb1	-79
27	0xc0	-64
28	0x0c	12
29	0x2c	44
30	0x08	8
31	0x00	0
32	0x05	5
33	0x30	48
34	0x0b	11
35	0xf0	-16
36	0x16	22
37	0xd8	-40
38	0x37	55
39	0xd3	-45
40	0xe0	-32
41	0x0f	15
42	0x32	50
43	0xe4	-28
44	0x21	33
45	0x30	48
46	0x3c	60
47	0x02	2
48	0x04	4
49	0x09	9
50	0xca	-54
51	0x06	6
52	0x16	22
53	0xe9	-23
54	0x5c	92
55	0xa8	-88
56	0x07	7
57	0xdb	-37
58	0x38	56
59	0x33	51
60	0x2a	42
61	0x1f	31
62	0xd8	-40
63	0xad	-83
64	0xeb	-21
65	0x04	4
66	0x1d	29
67	0x2d	45
68	0x0e	14
69	0xbe	-66
70	0xe1	-31
71	0x18	24
72	0xe9	-23
73	0xda	-38
74	0x21	33
75	0x1e	30
76	0xf2	-14
77	0x29	41
78	0x41	65
79	0x0b	11
80	0xcd	-51
81	0x0d	13
82	0x08	8
83	0x32	50
84	0xdb	-37
85	0xeb	-21
86	0x27	39
87	0xde	-34
88	0xeb	-21
89	0x70	112
90	0xbf	-65
91	0x44	68
92	0xe3	-29
93	0x17	23
94	0xd8	-40
95	0xc9	-55
96	0x10	16
97	0xc7	-57
98	0xd2	-46
99	0xea	-22
100	0xc2	-62
101	0x18	24
102	0xd7	-41
103	0x11	17
104	0xfd	-3
105	0x1b	27
106	0xcc	-52
107	0xd8	-40
108	0xcb	-53
109	0x16	22
110	0x11	17
111	0x35	53
112	0x22	34
113	0xca	-54
114	0x0b	11
115	0x17	23
116	0xf9	-7
117	0xf1	-15
118	0x2e	46
119	0x0d	13
120	0x04	4
121	0xce	-50
122	0x0f	15
123	0xea	-22
124	0x1a	26
125	0xcf	-49
126	0x24	36
127	0xe2	-30
128	0x0a	10
129	0xed	-19
130	0x03	3
131	0xf1	-15
132	0xf4	-12
133	0x36	54
134	0x19	25
135	0x25	37
136	0x12	18
137	0xfb	-5
138	0xe0	-32
139	0xf9	-7
140	0x3a	58
141	0xfc	-4
142	0xe4	-28
143	0x03	3
144	0xf6	-10
145	0x1f	31
146	0xe4	-28
147	0xea	-22
148	0xd8	-40
149	0x06	6
150	0xf2	-14
151	0x30	48
152	0xe8	-24
153	0x0b	11
154	0xe6	-26
155	0x19	25
156	0x0c	12
157	0x13	19
158	0xff	-1
159	0x2e	46
160	0x26	38
161	0xe9	-23
162	0xdd	-35
163	0x06	6
164	0x0a	10
165	0xd7	-41
166	0xe5	-27
167	0xfd	-3
168	0xfb	-5
169	0x04	4
170	0xfe	-2
171	0x05	5
172	0x27	39
173	0x23	35
174	0xfd	-3
175	0x1d	29
176	0xad	-83
177	0x49	73
178	0x0d	13
179	0x1d	29
180	0xe8	-24
181	0xe2	-30
182	0xe3	-29
183	0xd3	-45
184	0xe0	-32
185	0xfc	-4
186	0xe3	-29
187	0xff	-1
188	0xf0	-16
189	0xeb	-21
190	0xde	-34
191	0xce	-50
192	0xca	-54
193	0xe9	-23
194	0xf1	-15
195	0x10	16
196	0xe6	-26
197	0x7f	127
198	0xed	-19
199	0xe2	-30
200	0xde	-34
201	0xc3	-61
202	0xf5	-11
203	0x09	9
204	0x0c	12
205	0xdc	-36
206	0xdc	-36
207	0xac	-84
208	0xce	-50
209	0x3e	62
210	0x48	72
211	0xfb	-5
212	0xf0	-16
213	0x14	20
214	0xe7	-25
215	0x28	40
216	0xd8	-40
217	0x0f	15
218	0x41	65
219	0x0e	14
220	0x00	0
221	0x1a	26
222	0x08	8
223	0x69	105
224	0x49	73
225	0x04	4
226	0xbd	-67
227	0x55	85
228	0x24	36
229	0x02	2
230	0x0a	10
231	0xf9	-7
232	0x15	21
233	0xcb	-53
234	0x05	5
235	0x18	24
236	0xcb	-53
237	0x15	21
238	0xaf	-81
239	0xec	-20
240	0x17	23
241	0xf3	-13
242	0x22	34
243	0x01	1
244	0x43	67
245	0xef	-17
246	0x1b	27
247	0x21	33
248	0x00	0
249	0xba	-70
250	0x03	3
251	0x4e	78
252	0x94	-108
253	0xb7	-73
254	0x6b	107
255	0xc2	-62
